…
[34m[1mwandb[39m[22m: [33mWARNING[39m The save_model argument by default saves the model in the HDF5 format that cannot save custom objects like subclassed models and custom layers. This behavior will be deprecated in a future release in favor of the SavedModel format. Meanwhile, the HDF5 model is saved as W&B files and the SavedModel as W&B Artifacts.
Model: "sequential"
_________________________________________________________________
 Layer (type)                Output Shape              Param #
=================================================================
 embedding (Embedding)       (None, 177, 20)           200000
 bidirectional (Bidirection  (None, 177, 256)          152576
 al)
 bidirectional_1 (Bidirecti  (None, 177, 128)          164352
 onal)
 global_max_pooling1d (Glob  (None, 128)               0
 alMaxPooling1D)
 dense (Dense)               (None, 1024)              132096
 dropout (Dropout)           (None, 1024)              0
 dense_1 (Dense)             (None, 512)               524800
 dropout_1 (Dropout)         (None, 512)               0
 dense_2 (Dense)             (None, 256)               131328
 dropout_2 (Dropout)         (None, 256)               0
 dense_3 (Dense)             (None, 128)               32896
 dropout_3 (Dropout)         (None, 128)               0
 dense_4 (Dense)             (None, 64)                8256
 dropout_4 (Dropout)         (None, 64)                0
 dense_5 (Dense)             (None, 4)                 260
=================================================================
Total params: 1346564 (5.14 MB)
Trainable params: 1346564 (5.14 MB)
Non-trainable params: 0 (0.00 Byte)
_________________________________________________________________
Epoch 1/5


























































































































































…
